app/src/main/assets/tomato.tflite (tflite, 743404 bytes, 16 tensors)

arith.constant f4 [64]
000000 76 29 13 bd fb 60 70 bd 89 05 be bc b5 49 af 3c
       -0.035928212 -0.058686238 -0.023195999 0.021397451
000010 47 3f c3 bd a0 40 98 3b 92 aa ee bc c2 d7 21 bd
       -0.095335536 0.004646376 -0.029134069 -0.039512403
000020 63 be 66 bd eb b8 6e bc dd f5 18 bd b0 94 4a 3e
       -0.05633391 -0.014570455 -0.03734385 0.19783282
000030 00 10 42 3d a4 1c 18 bc ab 59 0f 3e 15 95 5c be
       0.04737854 -0.009284172 0.1399905 -0.21541245
000040 92 af 70 bd 71 89 09 3e c6 2d 3f bd 3e 44 6d bc
       -0.058761187 0.13431336 -0.046674512 -0.014481602
000050 8d c9 22 bc c3 be e0 bc 7a 1f 8e bb 47 34 42 bc
       -0.009935749 -0.027434712 -0.0043372484 -0.011853284
000060 ad 1b 1f 3e e8 1a 9b bd b8 7c 1f 3e 29 4a c0 bb
       0.15537901 -0.07573491 0.1557492 -0.0058682156
000070 6a d7 31 bd 54 47 5d bc 7e 53 53 3d 8e 8d e7 3d
       -0.043418325 -0.0135057755 0.051593296 0.11306296
000080 f1 9b f6 3d 39 1a 46 bc a1 4c 3a 3e 65 68 3d bc
       0.12041462 -0.012091213 0.18193294 -0.011560534
000090 3f c0 0f 3b d3 ca 0c 3d af 23 2e bc 0f a9 b2 bd
       0.0021934656 0.034373116 -0.010628625 -0.087236516
0000a0 77 c8 46 be 5f 62 92 bd fe 48 a5 3d 47 bc 98 3d
       -0.19412409 -0.07147669 0.08070563 0.07457786
0000b0 59 c8 56 bd bb 4c 88 bc 86 0d 25 be 0e 9f 7f 3e
       -0.05243716 -0.01663815 -0.1611844 0.24963018
0000c0 6f ae 34 bd 78 b6 5c 3e 8d 10 56 bd ff cf 29 bd
       -0.044111665 0.21553981 -0.052261878 -0.041458126
0000d0 82 e1 90 bc 79 73 16 be ef 97 3a 3d e7 8e 2f bd
       -0.017685656 -0.14692487 0.04555505 -0.04286089
0000e0 00 c6 a6 3c 86 e3 eb bc c0 cd 6c bd b9 68 28 3d
       0.020358086 -0.028795015 -0.057813406 0.041115496
0000f0 fb 08 66 bc 87 50 88 bc 39 9f 55 3e 5e 72 ae bd
       -0.014040227 -0.01663996 0.2086152 -0.085179076

arith.constant1 f4 [64]
000000 7b ac 2d bd 55 25 19 bd 40 ac cc 3d 88 6e 18 be
       -0.04240082 -0.03738912 0.099937916 -0.14885914
000010 11 0e c3 3d a5 b9 d5 bb 30 cb 3c bd 1c c8 06 bd
       0.09524167 -0.0065223747 -0.046092212 -0.032905683
000020 39 9b 2e 3d 52 65 f8 3b 44 f8 2f 3d 9a 97 d1 3d
       0.0426285 0.0075804377 0.042961374 0.10233994
000030 89 61 b6 3c 97 83 28 bd ea 62 9b bc 0a 66 6f bc
       0.022263305 -0.04114112 -0.018968064 -0.01461173
000040 ed 50 92 3c 08 29 86 3d 53 70 70 bc 1c 7f 10 3c
       0.017860854 0.06550795 -0.014675218 0.008819368
000050 9e 9b 87 bd 15 ea 10 bc 3f d0 62 3d f6 3d e3 3c
       -0.066214785 -0.008844872 0.05537438 0.027739506
000060 eb a5 0b 3e 35 3d 53 bd 89 c6 32 bd a1 13 08 be
       0.13637511 -0.051572043 -0.04364637 -0.13288738
000070 e0 e3 24 bd 6a 17 0d 3d 4b a2 ff bc 1c db a5 3b
       -0.04025638 0.034446158 -0.031205317 0.0050615203
000080 4b 8d e5 bc ec a6 15 bd f8 ff 6f bc f2 e6 1f 3e
       -0.028021475 -0.036536142 -0.01464843 0.15615442
000090 5c 20 cc bc 53 5c 40 bd 3c d9 bb bd 10 a4 fb bb
       -0.024917774 -0.046963047 -0.091722935 -0.00767947
0000a0 4b 0a 78 3d 56 da 2c bd 64 bf 51 3d 96 41 b3 bd
       0.06055669 -0.04220041 0.051207915 -0.08752744
0000b0 41 6e 78 3d 97 0c 5c 3d 92 cd 25 bc f0 93 14 3e
       0.06065202 0.053722944 -0.010119813 0.14509559
0000c0 f7 f3 cb 3c 55 26 63 bd 36 af fb bc ca 58 f3 3c
       0.024896605 -0.05545648 -0.030723196 0.029705424
0000d0 35 42 bf bc 7b ed 88 bd d4 7d 37 3d 5f b3 71 bc
       -0.023347 -0.06685921 0.044797733 -0.014752238
0000e0 be b6 2d bc fb 29 9f bc 0e 62 31 3e 0e cb 65 3d
       -0.010602651 -0.019429198 0.17322561 0.05610185
0000f0 66 3b 89 bc ce 10 de bc e8 c3 3e 3e cd 5b 80 bd
       -0.016751956 -0.027107622 0.1862942 -0.062675096

arith.constant2 f4 [64]
000000 f7 f2 40 bc d9 15 15 3c b8 c6 7b 3c 01 30 21 bc
       -0.011776677 0.009099447 0.015367202 -0.009838105
000010 eb b1 6d 3d 24 5d 06 3c 69 99 3d 3d 17 ec cd 3d
       0.058031004 0.008200917 0.04628888 0.10054796
000020 bd f6 d4 bc 09 44 dd bc a9 ec 27 bd 37 d3 2e bd
       -0.02599656 -0.02700998 -0.04099718 -0.0426819
000030 6a 88 cd 3d 14 8c 85 bb 5a f3 dc bd d6 91 b4 3c
       0.100357845 -0.0040755365 -0.10788603 0.022042196
000040 78 48 10 3d bf 0c 15 bc 09 77 8f 3c 6f bd 01 bc
       0.03522536 -0.009097277 0.017512815 -0.0079187
000050 fe f2 ec 3c 0f 02 aa bd 03 14 de bc f5 3c f0 bd
       0.028924461 -0.08301174 -0.027109152 -0.11730377
000060 e7 d7 2d bd 1f 9b b7 bd 28 53 90 3c 93 d5 b4 bb
       -0.04244223 -0.08965134 0.017617777 -0.005518624
000070 3e 12 40 bd e3 a8 53 3e 30 c0 7c bd 18 24 99 3d
       -0.046892397 0.20669894 -0.06170672 0.074775875
000080 3d 19 a1 3d e3 37 19 3e 71 67 c6 bc 75 b2 78 bc
       0.07866142 0.14962725 -0.024219247 -0.015179266
000090 54 e9 58 bc 22 42 91 3d cd 8c 36 bc 0b 3f 14 bd
       -0.0132392235 0.07092692 -0.011141968 -0.036192935
0000a0 d8 f2 a9 bd e4 d7 27 3c db 94 ce 3b 4d 21 90 bc
       -0.08298272 0.010244343 0.006304366 -0.017594004
0000b0 fb 1d 54 bd f2 74 0f bd 7f 4f 44 3d 99 b2 8a bd
       -0.051786404 -0.035023637 0.047927376 -0.06772346
0000c0 cf 49 40 3c f6 a3 20 bc de 91 47 3d fc 61 b1 bd
       0.011736347 -0.009804716 0.048723094 -0.08661267
0000d0 0b 04 14 bc 28 01 c0 bc 0e b9 85 3c 1e 3b 0e bd
       -0.009034167 -0.023438051 0.016323593 -0.034724347
0000e0 ef 15 0a bd 3b 5c 09 3d e6 90 71 bc ed 00 11 bd
       -0.033712324 0.033535223 -0.014744019 -0.035401274
0000f0 ac e6 71 bd 7b 9b 62 3d 95 cf 2f bc 57 32 43 3b
       -0.059057876 0.05532406 -0.010730644 0.0029784644

arith.constant3 f4 [64]
000000 63 e4 52 3c 87 1b 13 bd 6d 25 c1 3d c6 4a 23 b9
       0.012871834 -0.035914924 0.094309665 -0.00015572747
000010 07 65 09 bd bf de 87 bd 34 c4 c2 bc 8c 48 e9 bb
       -0.033543613 -0.06634282 -0.023775198 -0.007119244
000020 5b 16 ae 3c d8 14 8a bc 34 73 04 bd 98 69 5c bc
       0.021250894 -0.016855642 -0.03233643 -0.01345291
000030 e8 af 40 bc c9 91 ef bc 78 0f 61 bc 0b 35 8f bc
       -0.011760689 -0.02924432 -0.013736598 -0.017481348
000040 14 c7 bc bc 85 bb 37 3e 9e 18 28 bd ce b8 7f bd
       -0.023044147 0.17942627 -0.0410391 -0.062432103
000050 f4 c2 83 bc 34 b0 11 bc a1 25 fc bc 34 da 3b 3d
       -0.016084172 -0.008892108 -0.030779662 0.04586239
000060 90 ae 9c 3c fa 7e 4d bd e7 cf 36 bd 0a 13 0d bd
       0.019126207 -0.050169922 -0.044631865 -0.034441985
000070 ae c5 f6 bc 90 96 8c 3d 47 4f 09 3d 70 20 0b bc
       -0.030123558 0.06864655 0.03352287 -0.00849162
000080 ae ae ab bc 4f c5 1b bd 43 b0 16 bd 3e 7b 1b 3c
       -0.020957317 -0.038029965 -0.03678919 0.009489832
000090 90 be 20 bd 76 cc d9 bc 80 ee 8d bc c4 4b 04 bd
       -0.039244235 -0.026586752 -0.01732564 -0.03229882
0000a0 b7 bb 1f bd 10 dd 01 3d 20 92 e6 bd bd 88 2c bd
       -0.03899738 0.031704962 -0.1125834 -0.04212259
0000b0 f8 96 31 bd 8b 3f d4 bc c4 c0 50 3e 27 23 f3 3d
       -0.043356866 -0.025909206 0.20386034 0.11871939
0000c0 09 29 a4 bb 45 0c f8 3b 46 6a f5 bc 5c 9a 71 bd
       -0.0050097746 0.007569822 -0.029957902 -0.0589851
0000d0 b8 9a 25 bd 70 4a df 3d 85 0c 29 bd 14 45 0b bd
       -0.040430754 0.1090287 -0.041271705 -0.034001425
0000e0 05 fe 8d 3d d2 dd b0 3d 0a a5 c0 3d 15 a4 86 bd
       0.06933216 0.08636059 0.09406479 -0.06574265
0000f0 5a d3 1e bd 99 99 5d 3d 1f fd 47 bd a4 21 ce bd
       -0.03877578 0.05410156 -0.04882538 -0.1006501

arith.constant4 f4 [64]
000000 94 5b 05 3d 42 6d 19 bc dd 95 82 bd 47 ca 6f bd
       0.03255804 -0.009364428 -0.063762404 -0.058542516
000010 73 df 0c bd 1a 8e de bc f3 72 2b be e1 df c1 3c
       -0.034392785 -0.027167369 -0.16743068 0.023666324
000020 09 0f d2 bc 5b 18 65 bc bb af c9 bc d7 8e 8b bb
       -0.025641935 -0.013982858 -0.024619928 -0.004258971
000030 dc 15 d9 3d b1 c0 b6 3c cb be 57 bc c1 46 e7 bc
       0.105998725 0.02230868 -0.013168047 -0.02823198
000040 ab c4 8a 3a 4c 7e e1 bc 9e 29 e6 bb 16 8e 1c bd
       0.0010587176 -0.027526043 -0.007024004 -0.03822144
000050 61 fa a3 bc 03 d1 20 bd d6 99 70 bc 82 b1 26 bd
       -0.02001685 -0.03926183 -0.014685115 -0.04069663
000060 fe 46 d6 bd 88 16 d4 bc d2 5a a8 3c d5 22 01 3c
       -0.104627594 -0.02588965 0.020551119 0.00788184
000070 e7 7e d6 bc 21 e9 bb bd f5 56 6e bc d4 1c fd 3c
       -0.026183559 -0.09175325 -0.014547099 0.030897535
000080 2f 05 20 3c e8 06 15 bd c2 19 36 bd 7b 50 c8 bc
       0.009766861 -0.03638354 -0.04445816 -0.024452439
000090 9e dd fd 3c 01 eb c8 bc 36 f4 e6 ba a0 24 0c bc
       0.030989464 -0.024526121 -0.0017620388 -0.008553654
0000a0 a5 35 9f bc c3 34 8d bd 10 b2 9d bc b7 34 28 3d
       -0.01943476 -0.06894829 -0.019249946 0.041065898
0000b0 c8 79 1e bd e8 1b 52 3d 04 f6 80 3c 90 d6 94 bc
       -0.03869036 0.051296145 0.01574231 -0.018168718
0000c0 b6 57 cc bc bf 10 77 bc 9b 65 f3 bc 43 27 e5 bc
       -0.024944168 -0.015079676 -0.029711535 -0.027972823
0000d0 bf 9f 2a 3b 3d 1e 8b bc e7 6a e8 bc 03 6a 91 bd
       0.0026035157 -0.016982192 -0.028371288 -0.07100298
0000e0 5a 65 13 bd 0c 18 8f bd bf 72 51 3d 8d 3b 24 3b
       -0.03598533 -0.069870085 0.05113482 0.002505991
0000f0 ac ea 63 bd 39 08 9e bd 5a 72 31 bd 28 89 0a 3d
       -0.055643722 -0.07716412 -0.043321945 0.03382221

arith.constant5 f4 [64]
000000 a4 0b 41 3c 48 d7 4d bc b5 15 82 bd dd ab ea bc
       0.0117825605 -0.012563534 -0.063517965 -0.028646404
000010 fe fb 8c bc d3 db 8e 3d 43 1f 97 3c f3 de fe bc
       -0.017210003 0.06975522 0.018447524 -0.03111217
000020 18 86 2b 3d 85 ed 08 bd 38 73 25 ba 3d 09 51 bd
       0.04187593 -0.03342964 -0.00063114194 -0.0510342
000030 02 bc 89 bc 8d 78 8f bd 70 80 d2 bc 42 41 98 bc
       -0.016813282 -0.07005415 -0.02569601 -0.018585805
000040 7e b0 d2 bc 65 d2 01 bd 28 2b 07 bd 3c 78 7c bd
       -0.025718924 -0.03169479 -0.03300014 -0.061638102
000050 3c b3 c2 bc 10 68 3f bc ed 6e 43 3d 1c 2d ea bc
       -0.023767106 -0.011682525 0.04771321 -0.028585963
000060 b5 f2 f7 bc f8 bc df bc 10 70 25 3d c2 a6 85 bc
       -0.030267099 -0.027311787 0.040390074 -0.016314868
000070 53 93 1c bd 4a 70 8f bd ef 7e 82 bc 4b 0a 07 bd
       -0.038226437 -0.07003839 -0.015929667 -0.0329688
000080 1e 45 09 bd 08 b3 f7 bb d4 11 a8 bc 19 4f 39 bc
       -0.03351318 -0.007559184 -0.020516314 -0.011310362
000090 4f 4b bf 3c 7d e0 90 bc 9c 03 d0 bc c3 e7 80 bc
       0.02335134 -0.01768517 -0.025392346 -0.015735513
0000a0 8e 0d 64 3c 1a c0 93 bc 3e 9f 64 3d 8d c6 fa bc
       0.013919247 -0.018035937 0.055815928 -0.030612255
0000b0 1a c8 ab bc 09 db 13 bd 51 4e 1f bd 0f 42 bf bc
       -0.02096944 -0.03609756 -0.038893048 -0.023346929
0000c0 64 a2 09 bd ba 05 4c bc 5c c0 d9 bc 6c 06 6e bd
       -0.033602133 -0.012452537 -0.026580982 -0.058111593
0000d0 44 3a c7 bc c6 01 cf 3d 1a 1f ca bc f9 86 c1 bb
       -0.024319775 0.1010776 -0.024673034 -0.0059059826
0000e0 8b 7a 8a bd 35 a1 b4 bc 3f fe b6 bc d4 12 3d bc
       -0.067616545 -0.022049526 -0.02233803 -0.0115401335
0000f0 ed f1 dd bc c8 7d 4e bd b7 f6 a9 bc a9 40 0f bd
       -0.027092898 -0.050412923 -0.020747526 -0.034973774

arith.constant6 f4 [10]
000000 9c a4 c1 3d 52 7b 1f bd 86 65 73 3d c9 80 6c 3d
       0.09455225 -0.038935967 0.059422992 0.057740007
000010 87 8d 60 be 17 d3 85 3c 5d 0d 16 3d 6c 2c b8 bd
       -0.21928988 0.016336007 0.036633838 -0.08992848
000020 91 dc c6 bd d7 06 5e 3e
       -0.097100385 0.21682297

arith.constant7 f4 [64, 3, 3, 64]
000000 41 1b 98 bd dd 54 93 bb d2 62 d6 bc b6 ab 97 3d
       -0.07427073 -0.0044962005 -0.026170168 0.07405798
000010 f9 53 44 bd dd 5e a9 bc bf e7 b7 bd 8b 76 7e bd
       -0.047931645 -0.020675117 -0.08979749 -0.06212477
000020 a9 c6 b2 3a ee e7 87 bd 31 e0 84 bd d4 a4 74 bd
       0.0013639528 -0.06636034 -0.064880736 -0.059727505
000030 70 55 54 3c 58 48 0e be 18 13 c3 bd 69 c7 b2 3d
       0.012959823 -0.13894784 -0.09525126 0.08729441
000040 3e 6f b3 bd 5c a5 13 3d b9 00 03 3b da 42 35 3b
       -0.08761452 0.03604637 0.0019989444 0.0027658255
000050 80 7f bb 3d fd 78 d6 bd f8 19 27 3d ab 04 1b 3c
       0.09155178 -0.104722954 0.04079625 0.009461562
000060 59 57 34 bc 9b 8f 65 bd 77 e5 8d bd 8c f2 2a 3e
       -0.011007153 -0.056045156 -0.069285326 0.16694087
000070 63 14 c6 bb 4a 52 12 bd 96 b6 59 bc 83 58 e4 bd
       -0.0060449108 -0.03572301 -0.013288161 -0.11149695
000080 30 76 57 bd c5 12 29 3e f0 fd 29 bc ce b6 e7 bb
       -0.052602947 0.16511066 -0.010375485 -0.0070713526
000090 9b c1 b7 bb e5 10 a7 bd d4 59 16 bd 4a c0 7b ba
       -0.0056077964 -0.08157519 -0.03670676 -0.00096035434
0000a0 78 d5 1b 3d d0 1d a4 3d 38 e0 9b 3d 13 74 18 bd
       0.038045377 0.08013499 0.07611126 -0.037220072
0000b0 eb a0 49 bc 38 23 cf bc 20 65 a6 3c 61 b2 19 bd
       -0.012306432 -0.025285348 0.020311892 -0.03752363
0000c0 08 00 25 bd 27 65 79 bb 7e bf 98 3c c5 08 72 3d
       -0.040283233 -0.0038054676 0.018645998 0.059090395
0000d0 8c d8 bc 3c 8d 78 4a bd c2 90 9e bc a7 13 8d bd
       0.023052476 -0.049431372 -0.019356135 -0.06888514
0000e0 8a bb 89 bc 5a 90 11 bd 93 43 9d 3d c6 0f 2c bd
       -0.016813058 -0.035538055 0.076789044 -0.04200723
0000f0 03 68 b5 3d 42 cd 65 bd 88 ed b5 3c ba 3f 96 bc
       0.08857729 -0.056103952 0.02220799 -0.018340934
000100 c9 e2 12 3d d0 b2 47 bd e8 28 8b 3d 0e df 8b 3d
       0.03586081 -0.048754513 0.067949116 0.06829654
000110 17 0e a6 3d 10 c6 49 3c 81 44 63 be e3 73 f5 3b
       0.08108156 0.012315288 -0.22194101 0.0074906214
000120 b4 5a a7 bc 44 a7 27 3d 1c ac 99 3d 8e 90 ba 3c
       -0.020428993 0.040931 0.075035304 0.022774007
000130 f3 76 7d 3d 66 26 2d 3d 90 f5 23 3a d6 bf 00 bc
       0.061881017 0.042272948 0.0006254548 -0.007858237
000140 33 cf 23 bd 33 64 1f bc 79 9b a2 3c 1a b7 f6 bb
       -0.039992522 -0.009728479 0.019849526 -0.0075291516
000150 99 c8 f3 3d 36 04 af bd 6b 18 62 bd ae aa 93 bc
       0.11903495 -0.08545725 -0.055199068 -0.018025722
000160 0c 3f 94 bc f8 7e 42 be d0 9c 77 bd a1 b3 d0 3c
       -0.01809647 -0.18993747 -0.060452282 0.025476279
000170 63 2d 8a 3c 8d 5f d8 bd 29 8b 0c bd 94 0b 41 bd
       0.016867345 -0.105651 -0.0343124 -0.047130182
000180 5e 00 92 bd d9 dd f3 bd 60 60 c3 bd 6e 5e 52 3b
       -0.07128976 -0.119075485 -0.095398664 0.0032099742
000190 ac d2 16 bd 45 96 11 be c4 88 0b 3d 59 81 f4 bd
       -0.036822006 -0.1421748 0.034065977 -0.119387336
0001a0 af cc 3b 3d 18 c3 7c 3d af f7 f5 3b d5 13 a7 3d
       0.0458495 0.061709493 0.007506333 0.081580795
0001b0 ce 4e 92 3d 48 c3 27 bd 5c 09 c1 3d a9 2c c1 bc
       0.07143937 -0.04095772 0.09425613 -0.023580866
0001c0 d6 e4 f1 bc 51 bf 73 3d 68 e4 ee bb c7 c0 3d bd
       -0.029528063 0.059508625 -0.0072904117 -0.046326425
0001d0 22 ff 79 3d 9a 47 9e 3b 41 81 43 bd 52 99 04 be
       0.06103433 0.004830313 -0.047730688 -0.12949112
0001e0 6f 4b 17 3c f2 00 a8 bd c4 47 69 bd c7 e9 9e 3d
       0.009234293 -0.08203305 -0.056953207 0.07759433
0001f0 ae 78 a4 bd e2 5e b4 bd 85 42 7d bd f0 28 8f 3d
       -0.0803083 -0.0880716 -0.061831016 0.0699023
000200 33 5c 4e 3d 35 57 66 3d 9e 77 a5 bc 7b 0d 46 bd
       0.050380897 0.05623551 -0.02019864 -0.0483527
000210 41 02 ed 3b b8 6d 25 3d 0f 68 c7 bd 0a d2 ff bb
       0.0072329347 0.04038784 -0.097366445 -0.007807021
000220 3d c0 45 3d 0f 5c 80 3d 65 25 cc 3c 91 0c 4e bc
       0.048279036 0.06267559 0.024920175 -0.012576238
000230 93 d4 24 be d5 45 84 bd 66 1a d6 bb 80 b6 42 3c
       -0.16096716 -0.06458632 -0.0065339087 0.011884332
000240 e7 d4 0f be 85 ca 09 3d a6 6c c6 3b 75 e3 80 3d
       -0.1404606 0.033640403 0.0060554324 0.06293384
000250 aa 52 2c 3d f8 e7 a9 3d 78 c8 82 3c 5b 11 d7 bd
       0.042071022 0.08296198 0.015964732 -0.10501357
000260 5b 86 04 3c 69 4c 27 be 01 aa 2d 3d 98 2b 00 be
       0.008088673 -0.16337742 0.042398456 -0.1251663
000270 95 b5 98 3b 7f 80 40 3d 14 c6 9e bd bf 7b ee 3d
       0.004660318 0.046997543 -0.07752624 0.116446964
000280 bf 16 23 be 6b 54 18 3d 43 60 c3 bd 6c 4e 36 bd
       -0.15926646 0.037189882 -0.09539845 -0.044508383
000290 ec 20 0b bd 45 2b 56 bd 8e c6 8b 3d c4 2e b0 bd
       -0.033966944 -0.05228736 0.06824981 -0.0860267
0002a0 c9 57 8f 3d 39 30 be 3c 4d f5 9e 3c ad e0 2d bd
       0.069991656 0.023216354 0.019404078 -0.042450596
0002b0 c1 3c a5 bd b3 e8 80 3c f3 fd b0 bd 7b a5 51 3d
       -0.080682285 0.01573596 -0.08642187 0.051183205
0002c0 03 9a 08 3e df 1e 2b bd b9 91 08 3c f9 c2 ae 3d
       0.13340001 -0.041777488 0.008335524 0.08533282
0002d0 b7 d2 10 3b 51 bc 84 3d 74 07 a6 3d ab 83 06 3e
       0.0022098252 0.06481231 0.0810689 0.13136165
0002e0 86 b6 1f 3d 6a 5d b9 bd be f6 ab bc ce d8 c5 3d
       0.038992427 -0.090510204 -0.02099168 0.09660493
0002f0 e9 5c 3f bd d5 b9 28 3d cb 62 29 bd 78 7a a3 3d
       -0.046719465 0.04119285 -0.041353982 0.079823434
000300 71 e2 bf bc 2e 93 26 bd 19 c2 d7 3c 5b 2d 95 3d
       -0.023423405 -0.040667705 0.02633767 0.072840415
000310 61 61 ea bc 83 0b a5 bd 32 b1 8e bd 37 87 e0 bd
       -0.028610887 -0.08058836 -0.06967391 -0.1096329
000320 cc d4 76 3d 77 93 00 be 29 c5 87 3d 60 7b cb bc
       0.060261533 -0.12556253 0.06629402 -0.024839103
000330 e7 0b 68 bd 35 35 f3 bd 70 86 65 3d 34 44 2b 3c
       -0.056651976 -0.11875383 0.056036413 0.010453273
000340 ea 15 8c bd af ce 75 3b 30 3e 47 3c 5c 91 44 bd
       -0.06840117 0.0037507226 0.012160823 -0.047990188
000350 52 2e cf 3b 2c 57 59 3d fe b9 1b 3d 0f f5 dc bd
       0.0063226605 0.05306165 0.038019173 -0.10788929
000360 06 93 c9 3c 49 08 03 bd 9f 4f db bd 59 c5 19 bd
       0.024606239 -0.031990323 -0.10708546 -0.03754172
000370 0f 76 de bc 75 b7 b3 bd 6d f2 93 bd df 89 82 3d
       -0.027155904 -0.08775226 -0.072239734 0.06373953
000380 2e b0 4e 3c 9e dc f5 3d b7 3c 28 3d 55 7d 3e 3d
       0.012615247 0.1200497 0.041073527 0.046506245
000390 77 5e 76 bd d6 27 23 3c b7 2b 98 bc 50 f1 2c 3d
       -0.060148682 0.009958228 -0.018575532 0.04222232
0003a0 16 6b 16 bd 70 e1 0a 3d 7b 35 c9 3d 07 be c2 bc
       -0.03672322 0.0339064 0.09824654 -0.023772253
0003b0 80 47 c0 bd 3e 96 25 bd ea 27 d5 3d 5b dd 48 bd
       -0.093886375 -0.040426485 0.10408004 -0.049039226
0003c0 d6 3d f1 3c 3c 85 9a 3c 6f ae 8c 3d 55 89 66 bc
       0.029448431 0.01886236 0.06869208 -0.014070828
0003d0 3c 55 5f 3d 24 2b 65 3d 2f df 84 3c 97 8d 02 be
       0.054524645 0.055949345 0.016219703 -0.12749325
0003e0 0a aa 66 bd eb 0c a1 bc 98 9c d2 3c 83 98 17 3b
       -0.056314506 -0.01965948 0.025709435 0.0023131676
0003f0 93 04 7f 3d 0a 97 ea bd 64 4e e5 ba b3 89 08 3e
       0.06226022 -0.1145459 -0.0017494676 0.13333778

arith.constant8 f4 [64, 3, 3, 64]
000000 fa fb c4 3d e4 12 9c bb ea ba 04 bd 99 fb ad bd
       0.09618373 -0.004762994 -0.032404818 -0.08495254
000010 1e a4 ed bd 2e 9e 60 bb 1b 2a 1d 3d 2b 0a de 3c
       -0.116035685 -0.003427397 0.038370233 0.027104458
000020 ad b7 4f 3c 6d a0 5b 3d 0c 11 64 3d a9 b6 e4 bc
       0.012678069 0.05361979 0.05568032 -0.02791913
000030 86 a4 0c 3d d3 48 83 3d 6b 5c 5d 3c 06 e0 77 bc
       0.03433659 0.064103745 0.013510804 -0.015129095
000040 9e 82 1f bd 7f 92 14 3e a5 02 85 3d 4c b9 b2 3a
       -0.038942926 0.14509009 0.06494645 0.0013635545
000050 fa 51 fe bc 54 9f 55 bd 0e 6c b7 bc 0a 79 60 bd
       -0.031044949 -0.0521539 -0.022390392 -0.05480293
000060 b6 70 79 bc fd 66 48 3d 7f 14 83 3d 8b 43 b3 3d
       -0.015224626 0.048926342 0.06400394 0.08753117
000070 af e8 2f bd 63 0f b8 bc 1a 39 be 3c 2f 0d 63 3d
       -0.042946514 -0.022468274 0.023220588 0.055432495
000080 01 15 37 3c c5 8e 0f 3d fb d9 82 bd 8e ed 88 3d
       0.011174441 0.035048265 -0.06389233 0.06685935
000090 d7 4a bc bb 11 86 03 bd d6 2a 07 3c 6f 8a 9f 3d
       -0.0057462263 -0.032110278 0.008249959 0.07790076
0000a0 40 aa 4a bd b2 de f2 3c c4 b9 7f 3c 76 7f ae bc
       -0.04947877 0.029647205 0.015608255 -0.021301012
0000b0 e4 dc c4 bd 92 dd 63 bd 7f 93 79 3d b0 8b 96 3c
       -0.09612444 -0.055631228 0.06093168 0.018377155
0000c0 dc 8f 75 bc bf 00 e9 3a b5 5f d4 3d d4 27 3c bd
       -0.014987912 0.0017776712 0.10369817 -0.04593642
0000d0 c7 03 1f bd 80 c2 7b bd 3f 94 c5 bd 78 08 1f be
       -0.03882196 -0.061464787 -0.09647416 -0.15530574
0000e0 89 e5 5b bd 7c 72 93 3d 9c 52 7c 3c 1e d5 9c bc
       -0.0536857 0.071995705 0.015400555 -0.019144591
0000f0 6a ea ec 3d 59 70 4f bc 5e f1 b8 3d 93 37 84 bc
       0.115681484 -0.012661063 0.09030412 -0.016139781
000100 8b eb 2c 3d d3 b3 11 be a1 7e f7 bc a5 07 d9 bd
       0.04221682 -0.14228754 -0.030211749 -0.10597161
000110 15 e5 be bc 95 9b 59 3d 0a 69 1f 3d 66 5a f1 bc
       -0.023302594 0.05312689 0.038918532 -0.02946205
000120 3b 30 72 bd 9d 99 e9 3c 79 54 86 bd 49 ec 25 bd
       -0.059128027 0.028515631 -0.06559081 -0.040508542
000130 da 03 08 3d 69 30 8e 3d 60 c2 4e 3d d4 9b a5 3c
       0.033206798 0.06942827 0.05047834 0.020215906
000140 14 d1 11 3d e2 f1 ef 3d 34 c6 84 3d 63 3c f9 bc
       0.035599783 0.11716057 0.06483117 -0.030424302
000150 92 49 a9 3d 72 ee a9 3c 09 95 1c bd f8 b2 34 3e
       0.082659855 0.020743582 -0.03822807 0.17646396
000160 d6 5f cc 3c 0c a8 00 3d 63 f4 24 3d d7 45 78 3d
       0.024948042 0.031410262 0.040272128 0.06061348
000170 c3 c1 7a bc 2e a2 dc bc d6 11 77 bd d1 81 1a bc
       -0.015304985 -0.026932802 -0.060319744 -0.009430365
000180 c4 14 2a 3c 29 49 ed bc 3f b6 62 bd 24 74 23 bd
       0.0103809275 -0.02896555 -0.055349585 -0.039905682
000190 a7 db 92 3d 72 4f 7a bb 56 a2 0d bd aa 18 a1 3d
       0.071708016 -0.0038194326 -0.034578644 0.078660324
0001a0 46 0f 26 bd f4 82 41 bd b9 10 c4 bd 06 f1 59 bd
       -0.04054191 -0.047244027 -0.09573502 -0.053208373
0001b0 60 e0 94 bc 56 12 0a bb 89 61 f1 3b 10 7d d4 3d
       -0.018173397 -0.0021068058 0.0073663634 0.10375416
0001c0 7d 35 6c bc 6a d6 04 3d 46 7b 53 3b 16 cf 84 bd
       -0.0144170495 0.032431044 0.0032269522 -0.06484811
0001d0 1f 55 5c bc a6 b6 e7 39 3b 30 14 bd b1 2d fa 3c
       -0.013448029 0.00044195837 -0.03617881 0.030539365
0001e0 31 77 bf bd 1f db 2b 3d da e6 65 bd b4 06 11 bc
       -0.09348906 0.041957017 -0.05612836 -0.008851696
0001f0 3a 89 51 3c 3b 72 42 bd 48 a0 8a 3d 46 e0 4b 3d
       0.012789065 -0.04747222 0.067688525 0.04977443
000200 2e a0 f8 3b 1c 7e c2 bd e5 ea b8 3a 78 a2 01 be
       0.0075874543 -0.0949671 0.001410809 -0.12659633
000210 e1 dd 4a 3d 74 9b 96 bc eb 7d 81 3c 34 76 71 3d
       0.049528006 -0.018384673 0.015807113 0.058950618
000220 85 f5 78 bd 52 3e 8a 3d e4 a7 b0 3c b7 38 b2 bc
       -0.06078102 0.06750168 0.021564431 -0.02175556
000230 e5 f5 76 bd d2 92 62 bd 8e ae 3d 3c f2 31 5a bc
       -0.060293097 -0.0553158 0.011577262 -0.013317572
000240 1f c5 0a 3d 76 83 58 3d 14 1c a0 bd 8a da e2 bb
       0.033879396 0.052859746 -0.078178555 -0.0069230245
000250 c7 1c 95 3d 88 c4 57 3d ae f9 c6 3c 08 6b 8d 3e
       0.072808795 0.05267766 0.024288978 0.2762072
000260 bf 7b ac 3d 01 5d 24 bd 4d 53 89 3d 94 3a 69 3c
       0.0842204 -0.040127758 0.067053415 0.0142351575
000270 a4 5e b9 3d d8 0b 78 3d 7e 83 32 3d d1 66 90 bd
       0.090512544 0.06055817 0.043582432 -0.07050861
000280 1b 6d 1f 3d 1d 7c ac bc db 12 b7 3b 0e ef 6c bc
       0.03892241 -0.021055276 0.0055869645 -0.014461292
000290 ea 41 a3 bc 7e 20 32 3d 34 06 13 3d 6a 94 60 bc
       -0.019928891 0.04348802 0.035894588 -0.01370726
0002a0 fd 6e 00 be f7 58 b4 bd 27 9e 06 bd 9b d5 ef bd
       -0.12542339 -0.08806031 -0.03286567 -0.11710664
0002b0 db 26 37 bd b3 39 01 3d e5 ee 00 bc ec c3 0b 3e
       -0.04471479 0.031549167 -0.007869457 0.13648957
0002c0 39 37 c5 3c b3 ec 98 3d c2 28 d2 3d 2a 13 06 3e
       0.024074184 0.07467022 0.1026168 0.13093248
0002d0 6f 01 ad bc 49 31 99 bd e3 21 26 3b 8b 72 76 bd
       -0.021118848 -0.074801035 0.0025349788 -0.06016783
0002e0 ad 75 e1 bd db 95 09 3b 1c 5d 86 bc 8d 71 ad bd
       -0.11008773 0.0020993862 -0.01640182 -0.08468924
0002f0 f7 83 a9 3d d0 1c 84 3c 9a 0b 0d 3c 7a e3 42 bd
       0.082771234 0.01612702 0.008608723 -0.04758022
000300 07 f2 8d 3d 23 05 6e bd 0d 64 39 bc 24 56 2d bd
       0.06930929 -0.058110368 -0.011315358 -0.04231848
000310 84 23 ed bd 55 9a eb bc 75 5c 82 bb ea 98 f1 bc
       -0.1157904 -0.028760115 -0.003978307 -0.02949186
000320 ea ee 45 3d 60 ec 3f 3d 9a 73 43 3d 3e 81 47 bd
       0.04832355 0.046856284 0.047717668 -0.04870724
000330 75 88 7b 3c 94 f6 76 3c d7 7b 18 bb e7 62 81 bd
       0.015352358 0.015073437 -0.0023267174 -0.06317692
000340 77 b5 01 3b e0 7f d5 3d 79 01 e9 3c d1 87 0e bd
       0.0019792 0.10424781 0.028443085 -0.034797493
000350 ce 11 97 3d 8e d2 f3 3c 1c b5 3f 3d 6e 66 1d 3e
       0.07376443 0.029763486 0.04680358 0.15371105
000360 98 30 80 3d bd f2 e7 bc f4 b5 40 bd 61 77 b6 3d
       0.062592685 -0.028313989 -0.047048524 0.089094885
000370 19 da 11 bd e4 1e b9 bc 7e 33 1d bd ac 67 5b 3c
       -0.035608385 -0.022597738 -0.038379185 0.0133914165
000380 d1 d4 45 3d 1a 38 85 3d a2 d4 ce bb 96 c6 75 3d
       0.04829866 0.06504841 -0.006311969 0.06000384
000390 13 be d3 3d b2 87 8f 3d 3f b6 2d bd b7 88 96 3d
       0.10338988 0.07008304 -0.04241013 0.07350295
0003a0 72 b2 5f bc 35 94 8b 3d 82 d9 08 be 08 06 cb bd
       -0.0136533845 0.068153776 -0.13364223 -0.0991326
0003b0 5c e3 46 bd 51 47 93 3c d7 b2 03 3d 9b d3 b8 3d
       -0.04855667 0.017978342 0.032152977 0.090247355
0003c0 b9 90 6d 3d ed e1 9e 3d 47 1b 1e bd 2c 4e 1b bd
       0.057999346 0.07757936 -0.038600232 -0.037916347
0003d0 4c 59 a9 3c ca 97 7e 3d f3 21 a6 bd f3 85 9b bd
       0.020672463 0.062156476 -0.08111944 -0.07593908
0003e0 cf 75 78 bc 3a fe 45 3c 79 09 18 bd 81 16 89 bb
       -0.0151648065 0.012084538 -0.03711841 -0.004183591
0003f0 2e 58 86 3d 95 34 2c bd b0 42 4c 3d 82 be be 3d
       0.06559788 -0.042042334 0.049868286 0.0931368

arith.constant9 f4 [64, 3, 3, 64]
000000 c4 cc 06 3e 0e 69 76 3b 94 62 2c 3d 85 ba 45 bd
       0.1316405 0.0037599239 0.0420862 -0.048273582
000010 10 5b b6 bc cc bc 93 3d 44 98 a8 bc a6 c7 bc bd
       -0.022260219 0.072137445 -0.020580418 -0.092177674
000020 83 0c aa bd d5 4c 83 be 40 5c 33 bd cf a8 e5 bc
       -0.08303168 -0.25644556 -0.04378915 -0.028034596
000030 89 a5 3f be 53 36 9f bc bd 70 c2 bc 28 c2 47 bc
       -0.1871549 -0.019435083 -0.023735398 -0.012192287
000040 2e e4 ac be 89 08 91 bd 66 8f 33 bd 89 52 44 bd
       -0.33767837 -0.07081706 -0.043837927 -0.047930274
000050 27 8f f7 bc b8 df 95 3c c5 10 c1 bd 25 eb 32 bd
       -0.030219628 0.018295154 -0.09427027 -0.043681283
000060 44 98 bd 3c 3f 5a a1 bd fb b2 85 bd 1b c8 a7 bd
       0.023143895 -0.07878541 -0.065282784 -0.08192464
000070 15 b1 92 bd da 06 fe 3c e3 21 61 bd a9 d7 06 3c
       -0.07162682 0.031009126 -0.054963958 0.008230128
000080 88 28 05 bd 06 8a 6b 3d d7 f9 ba 3c 4d f5 d5 ba
       -0.032509357 0.057504676 0.022824211 -0.0016323716
000090 0a 3e 39 3d 1f 6d 13 3d 11 d8 73 bd 8c 57 c4 bc
       0.04522518 0.035992738 -0.05953223 -0.023967527
0000a0 58 bc be bc 09 99 f2 bc 1f 92 39 3d 3f d6 2e bd
       -0.023283169 -0.029613988 0.045305368 -0.04268479
0000b0 66 a5 fa bc 29 f5 c7 bd 20 72 f6 bc 3d e3 36 3d
       -0.030596446 -0.097635575 -0.030083716 0.044650305
0000c0 22 82 d3 bc 8c a6 4b bc 25 3b 71 bd 15 f7 65 3d
       -0.025818888 -0.012429845 -0.058894295 0.05614384
0000d0 cf c2 98 3c 1e 10 85 bd 2b 7b 81 3d f1 28 87 bc
       0.01864758 -0.06497215 0.063223206 -0.016499015
0000e0 c3 66 50 bb 50 f9 9b b9 ec c7 0d 3e 29 b5 ea 3c
       -0.0031799532 -0.00029749656 0.13845795 0.028650837
0000f0 14 5f 41 3c b0 d2 10 bc 82 77 42 bd c2 97 2a 3b
       0.011802454 -0.008839294 -0.047477253 0.0026030396
000100 8b a8 0f 3e 09 00 5b 3c 63 d5 f9 3b e1 ce 9b 3d
       0.14029138 0.013366708 0.0076243146 0.076078184
000110 83 dd 83 bd 59 93 1e bd f6 e3 c1 bd 60 27 ce bd
       -0.064387344 -0.03871474 -0.09467308 -0.10066104
000120 32 c5 78 bd 57 27 89 be e8 1b 59 be 06 e4 5d bd
       -0.060734935 -0.26787826 -0.21202052 -0.05417254
000130 79 e2 33 be cf 3e 14 3d 2a ef db 3c af c8 81 bd
       -0.17566861 0.03619271 0.02684744 -0.063371055
000140 be 2f b2 be 0a fb 4c 3b 11 83 d4 3c 88 2f a6 bc
       -0.3480205 0.003127756 0.025941404 -0.020286337
000150 45 e0 5e 3d eb cf 4c bc 05 17 2d be 04 fb 9a bd
       0.0544131 -0.012500743 -0.16903313 -0.07567409
000160 c2 de 82 bd 50 ab 4f 3d 23 80 a7 bd 14 d0 28 3d
       -0.06390144 0.050700486 -0.08178737 0.041214064
000170 aa 3c 89 ba ad 4e ed 3c 6e 31 55 3d 09 fc 16 bd
       -0.001047035 0.02896818 0.052049093 -0.036861453
000180 c3 43 8c bd 30 12 c8 bc e1 ca 96 3d bb 57 a0 bb
       -0.06848862 -0.024422735 0.07362915 -0.004893271
000190 57 ac ec bc cc 13 12 3e b8 ba aa bd 58 bb 0f 3d
       -0.028890772 0.14265364 -0.08336395 0.035090774
0001a0 bc 8c 4c bd e9 3f 5f bc 0b 4f a5 3d 03 74 4f bd
       -0.049938902 -0.013626077 0.08071717 -0.050647747
0001b0 9a 0c 2f bc 11 c8 1b be 69 02 ec bc 61 8f 48 3d
       -0.010684157 -0.15213038 -0.028809743 0.04896486
0001c0 b8 6b c5 bb d8 0d 85 3d 34 72 c5 3c 27 bf 1c 3d
       -0.006024804 0.06496781 0.024102308 0.038268235
0001d0 63 0f 72 bc f7 e8 1d bd 34 a7 2b bc c2 4f b1 bd
       -0.014774176 -0.03855225 -0.010476876 -0.08657791
0001e0 07 9c 96 bd b0 78 b7 3c b4 61 e5 3b 49 d9 ef 3c
       -0.073539786 0.022396415 0.0070001725 0.029278414
0001f0 dc 65 e8 bd 89 7e 35 bd 95 56 c7 bc dd 0c 0f 3c
       -0.11347553 -0.044310126 -0.024333278 0.008731094
000200 9b 83 e7 3d 43 21 03 3c 4d 43 68 bc ae 81 08 3d
       0.113043986 0.008003536 -0.014176202 0.033326797
000210 c5 bb 64 bd 49 68 13 bc b3 84 bb bd 58 ce c6 bd
       -0.055843133 -0.0089970315 -0.0915617 -0.09707326
000220 83 8a be 3c c9 45 14 be 97 21 56 be 38 61 bf bd
       0.023259407 -0.14479746 -0.20911251 -0.09344715
000230 ed 6e 1b be 38 ec b1 3d 24 bb 7b bc 6a e1 55 be
       -0.15179034 0.08687633 -0.015364442 -0.2088677
000240 04 6d 70 be d3 d0 7b 3d 27 57 64 3d 3c 31 84 3b
       -0.23479086 0.061478447 0.055747177 0.0040341895
000250 66 8f 91 3d 45 7c f2 bb 86 95 4a be b1 8c 21 be
       0.07107429 -0.007400068 -0.19783601 -0.15776326
000260 94 5d 37 be 3e e6 89 3d 67 31 3d bd 45 ab 41 bd
       -0.17906791 0.06733368 -0.046189692 -0.047282476
000270 a0 66 52 3d 12 8f 57 3d 0e e3 63 bd 42 49 05 be
       0.051367402 0.052626677 -0.055636458 -0.13016227
000280 ac 65 57 be 41 53 14 bd 87 4c 8b 3d 91 c8 bb bd
       -0.21034878 -0.03621221 0.06801706 -0.091691144
000290 a1 e0 fa bd 6a cf 95 3c fb 56 e1 bd f5 89 ad 3d
       -0.12249876 0.01828738 -0.11002918 0.08473579
0002a0 83 ba 05 3d d4 72 a4 3d 36 5f 54 3c 0b d3 a5 bd
       0.032648575 0.08029714 0.012962153 -0.08096894
0002b0 45 1f 9a 3b a5 3e 6f bd bb df 35 be 56 b4 55 3d
       0.0047034346 -0.05840935 -0.17761128 0.052173935
0002c0 21 a0 b8 bc 81 85 71 3c 9b d3 8e 3d 4d 1a cc 3a
       -0.022537293 0.0147413025 0.06973954 0.0015571803
0002d0 a4 42 c0 bd 1c 29 23 bd cd 4f c7 3c 36 a1 b0 bc
       -0.09387711 -0.039834127 0.024330044 -0.021561246
0002e0 9d 6a 19 3d ed 5a 2d 3d d7 40 04 3d 04 be 86 3b
       0.03745519 0.04232304 0.0322884 0.004112007
0002f0 f5 33 7c bd 93 79 9d bd 5a b1 b1 3c 64 66 e9 bc
       -0.061572988 -0.07689204 0.021691013 -0.028491206
000300 22 39 47 3e 07 6f 9a 3c 79 9e bd 3d 7d 63 6e bc
       0.19455388 0.01885177 0.09258742 -0.014550087
000310 93 d4 1b bd ad 0d d3 3b 3b 44 6c 3d fa 93 42 3c
       -0.038044523 0.0064408393 0.057682257 0.011876101
000320 2a 55 3d 3d b4 78 b7 be 06 42 ee bd ff 01 f4 bd
       0.046223797 -0.35834277 -0.11633687 -0.11914443
000330 42 a9 3c be 03 f8 e7 3c b4 4e 2f 3d f3 b2 38 bc
       -0.18423942 0.028316503 0.042799667 -0.011273134
000340 48 51 d2 be ba b0 37 bc 19 44 8b 3d c5 2d cb bc
       -0.41077638 -0.0112115685 0.06800098 -0.024802098
000350 ac 2d 1f 3d 8a 14 9e bd 16 57 4f bd 30 85 7f bd
       0.038861915 -0.07718761 -0.05062016 -0.062382877
000360 e9 ca bf bd 54 51 89 bd 85 7e e6 bd 3c 0e 38 3d
       -0.09364874 -0.06704965 -0.112546004 0.04493545
000370 6d 38 db 3c de ac 38 bd dd 3e 20 bd 71 33 b7 bd
       0.026760304 -0.045086734 -0.03912245 -0.089453585
000380 3f 64 ea bd 60 0d 93 bd e7 c9 6c 3d 34 6e 9e bc
       -0.11444902 -0.071802855 0.057809737 -0.019339658
000390 d1 77 59 bd 82 79 46 3d 2b c5 c2 bd 1f be 13 3d
       -0.05309278 0.048455723 -0.09510263 0.036069985
0003a0 0e 9f a1 3c 18 65 3c bc 0e cc b5 3c 59 98 a1 bd
       0.019729163 -0.011498712 0.022192027 -0.07890386
0003b0 b2 a9 66 bd 7c 5c 0c be c0 4d f1 bd 44 57 ec 3d
       -0.056314178 -0.13707155 -0.11782408 0.11540082
0003c0 e2 7b aa 3d 83 fa 25 3d 59 36 bb bc 3e 8e 54 3d
       0.0832441 0.04052211 -0.022853063 0.051893465
0003d0 d0 cb b5 ba 8d a9 7c bd 4e 24 2c bd 10 41 f3 bc
       -0.0013869945 -0.061685134 -0.04202681 -0.02969411
0003e0 90 f8 93 bd 62 f1 33 bd aa 88 8f bc 68 13 12 3c
       -0.07225144 -0.043931372 -0.017521221 0.00891576
0003f0 ab cd a6 bd 53 99 19 3d 42 bd 96 3d ac d4 10 3c
       -0.08144697 0.037499737 0.07360317 0.008839767

arith.constant10 f4 [64, 3, 3, 64]
000000 ec 78 00 3c d0 4b 02 3e 41 84 c4 bd ad 25 2a bc
       0.00784133 0.12724233 -0.09595538 -0.010384959
000010 24 0e 00 bd 5b 41 e3 3d 12 9b dd bb b8 16 0f be
       -0.031263486 0.1109645 -0.0067628706 -0.1397351
000020 eb 4c 52 3d 74 df c4 3d 4f b2 49 3c 48 d1 00 3c
       0.051342886 0.09612933 0.0123105785 0.007862397
000030 8d 24 45 bd dd 51 25 3d 50 ef 8d bd b3 69 9c 3c
       -0.04813056 0.040361274 -0.06930411 0.01909337
000040 41 34 80 3d ef e8 db 3a 3f ec a7 bd b4 bd 30 bd
       0.06259967 0.0016777794 -0.08199357 -0.043149665
000050 20 d1 9e 3d 1f 2f 4b bd 98 f9 bd bc c4 bf 76 3d
       0.07754731 -0.049605485 -0.023190305 0.060241476
000060 c0 d6 a8 bd 3f 63 cd bd 60 25 8b 3d 0d 34 60 3d
       -0.08244085 -0.10028695 0.06794238 0.05473714
000070 27 71 56 bd b4 bb 1a be bc 6a 7c bc f6 5e 76 3d
       -0.052354004 -0.15110666 -0.015406307 0.060149156
000080 95 62 de bc 37 06 26 be 55 d1 42 bc 75 cf 5d 3d
       -0.027146617 -0.16213308 -0.011890729 0.054152925
000090 cc f5 90 bd 0d 30 81 bd 09 17 9f bd fa 01 88 bd
       -0.07078132 -0.06307993 -0.077680655 -0.06641002
0000a0 a6 4c 52 bd c9 2f c5 3c b2 05 b3 bd 8f ed 19 be
       -0.05134263 0.024070637 -0.08741321 -0.15032028
0000b0 2d a1 5e 3d e2 90 e8 3c b3 a8 f9 bd 79 73 67 bc
       0.054352928 0.028389398 -0.1219038 -0.014126652
0000c0 30 2c 6a be 8f e9 24 be 2b 04 95 bc 38 f8 97 3d
       -0.22868419 -0.1610472 -0.018190464 0.07420391
0000d0 d7 09 5f 3b e6 98 3a be c6 b8 fc bc 0a 54 cc bd
       0.0034032965 -0.18222389 -0.030849826 -0.09976967
0000e0 a0 f2 1b bd 8c eb 4e bd 69 93 b8 bd bc 68 d8 bd
       -0.038073182 -0.050517604 -0.09012491 -0.105668515
0000f0 de b4 6f bd bd 06 4d 3c 6e 77 93 3d c3 ee a6 3d
       -0.058522098 0.012513814 0.07200514 0.08151009
000100 d3 84 aa bd 51 b3 29 3d 7d b4 4b bd 54 a8 68 3d
       -0.083261155 0.041430775 -0.049732674 0.056801155
000110 ec ff 95 3d f3 20 e4 3d f3 2d 28 bb 87 6f 7a bd
       0.07324204 0.11139097 -0.0025662153 -0.061141517
000120 c2 8e 27 3d d3 5f d3 bc 27 23 b2 bd 26 0a 7c bc
       0.04090763 -0.025802528 -0.08698111 -0.015383279
000130 2b 33 73 3d f2 ba ad 3b b5 68 c5 bc a3 76 0d 3c
       0.05937497 0.0053018266 -0.02409778 0.008634242
000140 a5 84 84 bd e0 fe 44 bc fb 77 64 bb 7d ea 64 bc
       -0.064706124 -0.012023658 -0.0034861553 -0.013971922
000150 a5 48 4a 3c fa 5f 40 bb 4c 0a 3b 3d 8c 05 dc 3c
       0.012346421 -0.0029354081 0.045664117 0.026858114
000160 31 27 a2 bd df c2 5d bd 88 e6 b2 3d 73 0d 84 bd
       -0.079176314 -0.05414092 0.087353766 -0.06447878
000170 9b 3e 79 bd 08 66 35 be 8a 53 91 3d f6 2b 45 3d
       -0.06085072 -0.17714703 0.07096012 0.048137628
000180 2e 48 c4 3c 2d c2 6f bd c8 e6 94 bd 15 3a 1e 3d
       0.0239602 -0.05853479 -0.072705805 0.03862961
000190 03 b8 6d bd ba 73 c6 3c 7f 27 82 bd 66 b2 a8 bb
       -0.058036815 0.024225105 -0.063551895 -0.00514822
0001a0 ca 03 ac bd 81 21 b1 3c 91 3e 2f bc f5 ea b4 3b
       -0.0839916 0.021622421 -0.010696069 0.005521173
0001b0 c8 2c 56 3d af 86 48 bd 43 32 19 be 7d a4 69 3d
       0.0522888 -0.04895657 -0.1496058 0.057041634
0001c0 7d fc f2 bd 9d 5a 0d be 02 8b be 3d 7e 3b 0f 3d
       -0.118645646 -0.13804097 0.093038574 0.034968846
0001d0 de 19 71 bc a7 ee 13 be 60 9f 58 3d 69 d2 a3 bc
       -0.01471564 -0.14446507 0.052886367 -0.019997792
0001e0 a7 be ff bc 50 6e 84 3d 8c 67 1b bd 72 c9 5d bd
       -0.03121884 0.06466353 -0.037940547 -0.05414719
0001f0 79 6b 5f 3d 15 5e 70 bc 67 80 51 3d 08 a5 bd 3d
       0.054545853 -0.014670868 0.051147845 0.09259993
000200 71 66 83 bd 4f 41 5e 3c 3d 36 90 bd e1 7f 01 3b
       -0.064160235 0.0135653755 -0.07041595 0.001976006
000210 67 80 8b 3d 65 41 67 3d 41 24 87 bd 44 f7 0d 3d
       0.068116 0.05645885 -0.06598712 0.03465964
000220 1e 30 bf 3b 99 2d c0 3d b3 e7 db bd e5 4e 1a bd
       0.0058345934 0.09383697 -0.107375525 -0.037672896
000230 c8 94 53 3d a1 57 8e bd 2b b4 30 bd 87 40 a2 3c
       0.05165556 -0.06950308 -0.04314057 0.01980616
000240 a0 f9 54 bd d8 33 e5 3c 2e 66 90 bd 06 32 24 bd
       -0.051995873 0.027978823 -0.07050739 -0.04008677
000250 6c 44 c4 3d 9c b6 8d 3d da ab 63 bc 22 79 ce 3c
       0.09583363 0.069195956 -0.013895953 0.025204245
000260 bc a6 bc 3d 42 c9 61 3d b0 fe 00 3e 6f 67 2d bc
       0.092114896 0.055123575 0.12597156 -0.0105837425
000270 50 d0 68 3b ba 2f 0e be f9 8f fc 3c 75 ca bb 3d
       0.0035524555 -0.13885394 0.03083037 0.09169475
000280 09 68 4f bd 44 18 25 be 7c 84 d6 3c 9f b3 c2 3c
       -0.050636325 -0.16122538 0.02618622 0.02376729
000290 80 b5 cb bd c0 ad 08 3c 78 57 18 3c 20 83 6c bc
       -0.09946728 0.0083422065 0.009298198 -0.0144355595
0002a0 8d 85 94 3d dc 74 1f 3d 80 c8 ca bd 24 e8 a6 3c
       0.07252035 0.038929805 -0.099015236 0.020374365
0002b0 69 10 1a 3e 6f 2e 9f 3c ed c5 36 bd f2 e9 81 3d
       0.15045322 0.019431321 -0.04462235 0.0634345
0002c0 d9 ff 9b bd 06 fc 87 be 54 bf 22 3d 46 36 06 bd
       -0.076171584 -0.26559466 0.039733246 -0.032766603
0002d0 80 35 db bc 5b bf cf 3c c8 14 ec 3c 73 9b b8 3b
       -0.02675891 0.0253598 0.028818503 0.0056337654
0002e0 b0 fd b9 bd 90 11 6c 3d 36 2b 69 be 56 9d a8 3d
       -0.0908159 0.057633936 -0.2277039 0.082331344
0002f0 5a ff 13 bd 27 03 ec 3d cf d3 bb ba f7 e5 be 3d
       -0.036132194 0.11524039 -0.0014330092 0.09321206
000300 34 bc c2 3b 1d cc bf 3d dc 98 ef bd 28 7a 10 3d
       0.0059428457 0.093651034 -0.116990775 0.035272747
000310 c8 8a b5 3d d2 5b 1b 3e d8 af 17 bd 54 48 5e be
       0.08864361 0.15171745 -0.037032932 -0.21707278
000320 64 80 a3 bc 82 b5 fe 3c c7 de 16 be f6 bf b0 bd
       -0.019958682 0.031092409 -0.1473342 -0.08630364
000330 1d 5b b4 3c 9d 4b 2b bd e4 04 c6 b9 bd b3 7c 3d
       0.022016102 -0.041820157 -0.00037769147 0.06169485
000340 d1 d1 c2 3b 1f 11 a0 bd 93 0b 8d 3c 40 c5 1d bd
       0.005945422 -0.078157656 0.017217433 -0.03851819
000350 29 74 07 3e 21 b8 89 bd f5 fa be 3d 3d 93 31 bd
       0.13227905 -0.06724573 0.0932521 -0.043353308
000360 fc c1 c1 bd 21 2e 34 bd 21 78 47 bc 79 aa cf 3b
       -0.09460828 -0.043989304 -0.012174637 0.0063374606
000370 3a 80 98 3d d8 40 26 be 70 b7 0e 3d f8 b4 d1 3c
       0.07446332 -0.16235673 0.03484291 0.025598988
000380 43 f4 a8 3c 74 a2 d5 bd 09 d2 65 3c c5 17 d3 3d
       0.020624286 -0.10431376 0.014027127 0.10307268
000390 40 b5 2f bd 40 1b 26 3c 0c 99 4f bd fd 67 60 bd
       -0.042897463 0.010138333 -0.050683066 -0.05478667
0003a0 d4 e0 2b be 2a bd bc bc 35 80 4f 3c 3e 1e 06 be
       -0.16784984 -0.02303942 0.012664844 -0.13097474
0003b0 08 b5 66 3d 11 f0 77 3c 81 73 80 bd bd de a4 3d
       0.05632499 0.01513292 -0.062720306 0.080502965
0003c0 7b 92 32 be e7 9f ea bd 79 8c f4 3c 34 f8 4c 3c
       -0.1743869 -0.1145628 0.029852139 0.012510348
0003d0 3e 0c 1c bd 6c bf 1d be 46 b4 4b bd 06 21 85 bd
       -0.038097613 -0.15405053 -0.04973247 -0.06500439
0003e0 af fb b4 3d a1 72 36 3c e4 09 76 3c ba 74 e5 bd
       0.08837067 0.011135728 0.015017007 -0.112039044
0003f0 19 cc 2c 3d 5d ae 70 3c e7 2a 8c bd 73 a0 d6 3d
       0.04218683 0.014690009 -0.068441205 0.10479822

arith.constant11 f4 [64, 3, 3, 32]
000000 6b a0 5d bc af e7 a5 bd 39 db 2f bd 64 86 96 bd
       -0.013527016 -0.08100831 -0.042933676 -0.07349852
000010 c4 6c 4e bd 0a df 0e 3d 52 c7 a1 bc 9b 90 9b 3c
       -0.050396696 0.034880675 -0.019748364 0.018989852
000020 5f cf 1b 3e aa b8 f8 bd 62 b1 b1 3a a5 a8 c9 3d
       0.15215825 -0.12144597 0.0013556893 0.098466195
000030 43 9e 3c 3a d1 8e 5a bd e8 e3 e9 3c 19 ec 9e 3d
       0.00071952137 -0.053358857 0.028551057 0.07759876
000040 5b 43 e2 3d 10 f6 ed 3c 88 d7 a7 bd 72 35 4e 3d
       0.11048003 0.029047996 -0.08195406 0.05034394
000050 31 60 8f bd 67 80 21 bd 53 ea 4e 3c 26 9c 1d 3d
       -0.07000769 -0.039429095 0.012629109 0.038478993
000060 19 4e b5 bd 62 2b 03 bd 02 51 c8 bc c5 7f ab 3d
       -0.088527866 -0.032023795 -0.02445269 0.083739795
000070 cb f9 b8 bd 96 fc ec 3a 15 56 74 3d 4e 2a 6b bb
       -0.09032019 0.0018080648 0.059652407 -0.003588337
000080 85 26 a0 bd ed a6 8f bc 0a 77 cb bd c4 36 f7 3c
       -0.07819847 -0.017535651 -0.09934814 0.030177481
000090 a6 a8 8d bc 5b aa f0 3b 99 92 ab bd 81 10 e9 bd
       -0.017292332 0.0073445267 -0.08377571 -0.11380101
0000a0 82 62 50 3d 4b ee ea bc b0 7b 6e bd 16 53 1f 3e
       0.050875194 -0.02867808 -0.058223426 0.15559039
0000b0 32 71 77 3d df 34 2d be 38 d0 ba 3d 0e 03 2c 3e
       0.060410686 -0.169147 0.09121746 0.1679804
0000c0 94 b2 d3 bc 19 77 05 3e 3f 01 b6 bd 2a 10 15 3c
       -0.025841989 0.13033713 -0.088869564 0.009098092
0000d0 c2 6d 62 bd 4c 2a 97 3d 6a 16 8f bd 61 99 41 bd
       -0.055280454 0.07381114 -0.06986697 -0.047265414
0000e0 57 3e a6 bd 22 de 1d bd 53 63 1f 3c 34 ac 86 3d
       -0.08117359 -0.03854192 0.009728271 0.06575814
0000f0 c7 6c e7 3b a1 77 c1 bd 19 c9 8b bd cb 7e 67 3c
       0.007062528 -0.094466455 -0.06825466 0.014129351
000100 30 3a f5 3a cf 0d 63 3d cf e5 18 3d c3 d3 60 3c
       0.0018709358 0.05543309 0.037328538 0.013722363
000110 48 82 7e bd 30 eb 05 bd 21 6a b8 bd 5c 50 29 bd
       -0.062135965 -0.032694995 -0.090046175 -0.041336402
000120 16 cf 15 3e 33 66 b2 bd f3 18 f1 3c 5c 15 19 3e
       0.14629778 -0.08710899 0.029430842 0.14949554
000130 03 8f 8a bd 75 8f 8d bd c8 cd 39 bd d3 52 35 3e
       -0.067655586 -0.06912128 -0.045362264 0.17707376
000140 60 c6 04 37 37 b1 1f 3c 1b 98 8c bd 66 0e cf bd
       7.914001e-06 0.009746841 -0.06864949 -0.10110168
000150 f8 ac 29 3c 82 18 05 3d db de 9a bd 02 a0 a3 bd
       0.01035618 0.032494076 -0.075620376 -0.079895034
000160 af 00 a9 bd e6 25 b6 bd 15 b6 93 bd fe 6b 52 3c
       -0.082520835 -0.08893947 -0.07212464 0.01284313
000170 6d 49 1d 3d 43 07 e2 bd d6 e9 57 bd a8 46 af 3c
       0.038400102 -0.11036541 -0.052713238 0.021395996
000180 b9 06 8f bd bc e6 1f bd 05 d0 15 bc fa f7 a5 bd
       -0.06983704 -0.039038405 -0.009143834 -0.081039384
000190 e2 c6 7c bd 66 e1 85 bc 07 c6 85 bd db 3c 63 3c
       -0.061713107 -0.01634283 -0.06531911 0.01386949
0001a0 9b c9 05 3e ed 31 8b bd f9 20 09 3d 85 51 39 3e
       0.13065188 -0.06796632 0.03347871 0.18097503
0001b0 94 04 9a 3d 67 62 c5 3c 33 8d 38 3d e2 8c 0a 3e
       0.075204045 0.024094773 0.045056533 0.13530305
0001c0 c7 20 ba 3d 7a 45 55 3c e9 4d 9f bd ca e0 d2 3b
       0.09088283 0.013017053 -0.07778532 0.0064354884
0001d0 f4 48 ba 3c 59 10 85 bd a4 ed 67 bd 62 11 ba bc
       0.022739865 -0.06497259 -0.056623116 -0.022713367
0001e0 4c 2a 6f 3d 0b 3b f9 bc 3b 70 9e bd ef e8 a3 3c
       0.058389947 -0.030423662 -0.0773625 0.020008532
0001f0 fa 97 c5 bd 05 e3 3f bd de 1d 88 3d 41 47 f6 3c
       -0.09648128 -0.046847362 0.06646322 0.030063273
000200 3c f0 e1 3c 22 2c f8 3c 83 23 4b bd 6d 27 a9 bc
       0.027580373 0.030294482 -0.049594413 -0.020648682
000210 b0 4e 43 bb b4 72 67 3d c2 b0 05 3d 45 b6 34 bd
       -0.002980154 0.056505874 0.032639273 -0.04411914
000220 d1 14 1a 3e 4b 01 09 bd 5e 41 e8 bc a4 a8 e7 3d
       0.15047003 -0.0334485 -0.028351482 0.113114625
000230 82 8e 89 3d 52 3a 9f bd f3 28 e3 bc 44 4f 3a 3e
       0.06716634 -0.077747956 -0.027729487 0.181943
000240 e3 7c 25 bd db 50 85 3d 50 aa f1 bd d6 72 d9 bc
       -0.040402304 0.065095626 -0.11800063 -0.026544016
000250 d8 fe f8 bc ef 89 4f bd a4 15 bb bd 4a 5b 26 3d
       -0.030394956 -0.050668653 -0.09134987 0.040614404
000260 da dd b2 bc e6 6b 1e bd c0 2e 26 bd df f1 2c 3b
       -0.021834303 -0.03867712 -0.040571928 0.0026389284
000270 b3 8c 82 3d 1d fc 98 bd 0a 06 20 3c 09 e8 6c 3d
       0.063744925 -0.07469962 0.009767065 0.057838473
000280 4b 3e 06 3c 1b 72 40 3d 2e da 59 3d 28 56 0f bd
       0.008193563 0.04698382 0.053186588 -0.034994274
000290 e8 55 10 3d b2 fa bd 3c b7 88 d4 3c 47 2d 9c bd
       0.035238177 0.02319083 0.025944097 -0.076258235
0002a0 ef ec 69 3d 51 29 bc 3c c4 46 a0 bc 2e f9 43 3e
       0.057110723 0.02296892 -0.019564994 0.19138023
0002b0 da c2 11 bd 10 f1 36 3d e7 4d 35 3c b9 69 1b 3e
       -0.035586216 0.04466349 0.011065937 0.15177049
0002c0 ec c0 98 bb 0d e0 bb 3d 9e e2 49 bd 6b 13 b8 bc
       -0.00466167 0.09173594 -0.049288385 -0.022470197
0002d0 f1 a1 67 bc 0b e2 58 bd c2 34 cd 39 7b a0 c3 bd
       -0.014137731 -0.052949946 0.00039139955 -0.095520936
0002e0 bd 0d c0 3d a7 a9 98 bb 83 d4 5f bd 10 de b0 3c
       0.0937762 -0.004658896 -0.054646026 0.021590263
0002f0 26 c0 59 3d db 61 0c be 58 49 0f 3d 9b b7 b9 bd
       0.053161763 -0.13709204 0.034982055 -0.09068223
000300 e6 ed 9f bd ba 84 b2 3d 98 25 aa 3b d8 2f 04 3d
       -0.078090474 0.08716722 0.00519247 0.03227219
000310 ec 05 f8 bc d6 c7 39 bd ed 71 93 bd 47 c7 8e 3c
       -0.030276261 -0.045356594 -0.07199464 0.017429007
000320 59 95 90 3d 56 63 29 bd 96 3a 30 bd cd af 4f 3e
       0.07059736 -0.0413545 -0.043024622 0.20281906
000330 75 7e 0e 3d c7 6f 9d 3a 2a ff 05 3d b8 d5 dd 3d
       0.034788568 0.0012011462 0.032714047 0.10831779
000340 8f cb ad 3d cb fc eb 3d 4a 79 bb bd a9 51 8e bd
       0.08486091 0.11522826 -0.091539934 -0.06949169
000350 60 16 67 3c 65 19 0c bc 1c 78 f0 bc f4 4f be bc
       0.014104456 -0.008550976 -0.029354148 -0.023231484
000360 8f 4a 93 3d f5 e8 23 bd f7 2a 91 3d e3 64 8f 3d
       0.07191955 -0.040017087 0.07088273 0.070016645
000370 bc cf ac bd 53 d4 cf bd a1 ea 05 3d 7f 83 04 3e
       -0.0843806 -0.101479195 0.032694463 0.12940787
000380 65 75 92 3b aa 04 ec 3d 01 34 63 bd 84 f9 30 bc
       0.004469561 0.11524327 -0.055469517 -0.010801677
000390 a6 ee 9f bc 36 76 ff bd ec ae 08 3d 00 b3 f2 bc
       -0.019522976 -0.12473719 0.033369943 -0.02962637
0003a0 36 40 09 3e 39 8e a8 bd 14 96 29 3c 07 31 4c 3e
       0.13403401 -0.08230252 0.010350723 0.19940577
0003b0 af 1c 1a 3d 37 07 b9 3b 25 03 a6 bb 16 e2 0e 3e
       0.03762501 0.005646612 -0.005066293 0.13953432
0003c0 30 ba 64 3d ef 6d 51 3d 09 f8 eb bd d0 e4 b5 bd
       0.055841625 0.05113023 -0.11521918 -0.08881533
0003d0 60 6c a3 bd 23 42 a5 bb 2c 81 07 3c 09 bb f4 bb
       -0.07979655 -0.0050432845 0.008270543 -0.0074685854
0003e0 d6 b3 1a 3c d1 93 8e bc 27 fb b6 bd e4 93 ce 3c
       0.00944229 -0.017404469 -0.08934622 0.025217004
0003f0 f4 32 04 b8 21 a8 2d be 13 57 ad bd 53 bd e9 bd
       -3.1518706e-05 -0.16958667 -0.08463874 -0.11413064
